HW4/hw_nerf/ckpt.pth (torch, 90986 bytes, 6 tensors)

module.layer1.weight f4 [128, 39]
0	0xbe82a28e	-0.25514644
1	0xbe9d156f	-0.30680415
2	0x3e3d8635	0.18508227
3	0xbe10ae48	-0.14128983
4	0xbe45b998	-0.1930908
5	0x3e6d87a7	0.23196279
6	0xbe27ddda	-0.16393223
7	0xbdeef760	-0.11668277
8	0x3d8224b4	0.06354657
9	0xbe00f8e6	-0.12594947
10	0x3df3d09e	0.11905025
11	0x3ddfd17f	0.1092863
12	0xbee22b2c	-0.44173563
13	0xbe8df0d8	-0.27722812
14	0x3d23af7d	0.03996228
15	0x3e76007b	0.24023621
16	0xbe176788	-0.14785588
17	0x3f0b5901	0.54432684
18	0xbe5a525f	-0.21320485
19	0xbe5db60e	-0.2165148
20	0x3d0a68b7	0.03379127
21	0x3d57d919	0.052697275
22	0x3e6a354d	0.22871895
23	0xbd3b3896	-0.04570826
24	0x3f04770d	0.5174416
25	0xbd03316f	-0.032029565
26	0xbe800fca	-0.25012046
27	0x3cc1d0f2	0.023659203
28	0xbe6ea600	-0.23305511
29	0x3eb71000	0.35754395
30	0xbe50a5b1	-0.20375706
31	0xbdf5acda	-0.119958594
32	0xbe2fe617	-0.17177616
33	0xbc87c324	-0.016572542
34	0x3dae37a6	0.08506708
35	0xbde24102	-0.110475555
36	0xbdfb8bdd	-0.12282536
37	0xbe525fc7	-0.20544349
38	0xbe1e0544	-0.15431696
39	0x3e4092c7	0.18805991
40	0xbed35b93	-0.41280803
41	0xbc2e4946	-0.010637587
42	0xbd88ea5c	-0.066853255
43	0xbea9c6f8	-0.33159614
44	0xbd4ea5c3	-0.05045105
45	0xbe6272a3	-0.22114043
46	0xbe1bf844	-0.15231425
47	0xbd76197a	-0.06008289
48	0xbde4a9b5	-0.111651815
49	0xbca73b62	-0.020414058
50	0x3d542aa3	0.051798474
51	0xbea1c0ba	-0.3159235
52	0xbf02d458	-0.5110526
53	0x3e4de1c3	0.20105653
54	0x3e585b02	0.21128467
55	0xbd3ce38c	-0.046115443
56	0x3eaf3a50	0.34224176
57	0x3e501b1f	0.20322846
58	0xbe8b90e9	-0.27258995
59	0x3f09179d	0.53551656
60	0xbe2d88a1	-0.16946651
61	0x3dc8cc19	0.098045535
62	0xbe7d209b	-0.24719469
63	0x3e585e25	0.21129663
64	0xbe00cab5	-0.12577327
65	0xbe78bb9b	-0.24290316
66	0x3e255b07	0.16148005
67	0x38e6713b	0.000109883455
68	0x3e943e9f	0.28954026
69	0x3ee30341	0.4433842
70	0xbc3f2f77	-0.011669031
71	0xbd648267	-0.055788424
72	0xbc63f782	-0.013913991
73	0xbbb6c689	-0.0055778665
74	0xbe64051d	-0.22267576
75	0x3e87fc37	0.26559612
76	0xbd033f75	-0.03204294
77	0x3eb1c06d	0.34717122
78	0x3e8cb8f3	0.27484855
79	0xbdf76a28	-0.120807946
80	0xbe1888c2	-0.14895919
81	0x3ec3bc02	0.38229376
82	0x3dacc8a7	0.08436709
83	0xbe22dbcb	-0.15904157
84	0xbee9eb24	-0.4568721
85	0xbd7a6c90	-0.06113869
86	0x3cef0d62	0.029181186
87	0x3e6e7601	0.23287202
88	0x3d679322	0.0565368
89	0x3e27c6d1	0.16384436
90	0xbf29ddd8	-0.6635413
91	0x3ec433ee	0.3832087
92	0xbdcf025e	-0.101078734
93	0xbde72296	-0.112858936
94	0x3ea2f6bc	0.31828868
95	0x3e0d20da	0.13782063
96	0xbed90054	-0.42383063
97	0xbdffcb9b	-0.124900065
98	0xbcea6d75	-0.028616646
99	0x3d96fd45	0.07372526
100	0x3d61da04	0.055139557
101	0x3e8d02be	0.27541155
102	0xbe21977a	-0.1578044
103	0x3d40509f	0.046951886
104	0xbe0713e1	-0.13191177
105	0x3e406214	0.18787414
106	0xbdc25402	-0.094886795
107	0x3e876c40	0.26449776
108	0x3e2c331e	0.16816375
109	0x3db2060c	0.086925596
110	0xbeac0b28	-0.33602262
111	0xbeeebd0e	-0.46628612
112	0xbcc29c11	-0.023756059
113	0xbe346b83	-0.17619137
114	0x3f01d4ca	0.50715315
115	0x3df780cf	0.12085115
116	0xbef9a368	-0.48757482
117	0xbe51cc56	-0.20488104
118	0x3e780834	0.24221879
119	0xbea57cdf	-0.32321832
120	0xbe2fa6a0	-0.17153406
121	0x3e0a8be1	0.13529922
122	0xbe99a4b0	-0.3000846
123	0xbe2a8e74	-0.16655904
124	0x3dacc63e	0.08436249
125	0x3da06dee	0.078334674
126	0xbdd3bc9a	-0.10338707
127	0x3e74ad1e	0.23894164
128	0xbe422470	-0.18959212
129	0x3d808a51	0.06276382
130	0x3d51fc41	0.05126596
131	0x3d3d78e3	0.046257865
132	0x3dc34544	0.09534696
133	0xbcfcf1df	-0.030877052
134	0x3e7ca79a	0.2467331
135	0x3e8ecb74	0.27889597
136	0x3e54554f	0.20735668
137	0x3e10a709	0.14126219
138	0xbc3f3635	-0.011670639
139	0xbeac68e0	-0.33673763
140	0x3df7bc98	0.12096518
141	0x3e149399	0.14509429
142	0x3de0fb67	0.10985451
143	0xbe334014	-0.17504913
144	0x3de35c13	0.11101546
145	0x3f014e99	0.50510556
146	0x3dd0d8c5	0.101975955
147	0xbda3f0bd	-0.080049016
148	0x3ca044e6	0.019564103
149	0x3d5c3d58	0.05376944
150	0x3df737e9	0.12071211
151	0xbe1181d2	-0.14209679
152	0x3e27a264	0.16370541
153	0xbe48e3b8	-0.19618118
154	0xbdc89794	-0.09794536
155	0xbcd1cec5	-0.02561129
156	0x3ec41e7c	0.38304508
157	0xbe4ea785	-0.20181091
158	0x3e2161fa	0.15760031
159	0x3ea04c56	0.3130824
160	0xbde45db8	-0.11150688
161	0x3e6b9e9c	0.23009723
162	0xbe858396	-0.26076955
163	0xbe7560dd	-0.23962732
164	0xbdbc3417	-0.09189623
165	0x3e686073	0.22693042
166	0x3eab9173	0.33509406
167	0x3b4a1299	0.003083384
168	0xbe5d8b79	-0.21635236
169	0xbe93ce57	-0.28868362
170	0xbe88d384	-0.26723874
171	0x3a885ad4	0.0010403045
172	0x3f1193d3	0.56866187
173	0xbda876b5	-0.082257666
174	0xbecc3261	-0.39882186
175	0x3e1fbea4	0.15600067
176	0xbed99272	-0.4249454
177	0x3e9a825e	0.30177587
178	0x3e0a8371	0.13526703
179	0x3cb4167f	0.021983383
180	0x3ed5e890	0.41778994
181	0x3dca6447	0.09882408
182	0x3ce98eb3	0.028510427
183	0xbeb7b8fe	-0.35883325
184	0x3ac7ec89	0.0015252988
185	0x3e1c30fb	0.1525306
186	0x3e357539	0.17720498
187	0xbe6154b8	-0.22004974
188	0x3df4e7cf	0.119582765
189	0x3ca9422b	0.020661434
190	0xbea15343	-0.31508836
191	0x3ca5af56	0.020225208
192	0xbee0403a	-0.43799
193	0x3d5661d5	0.052339394
194	0x3d946eab	0.07247671
195	0x3be101a6	0.0068666516
196	0xbe04cb16	-0.12968096
197	0x3deaad8e	0.11458884
198	0x3d896678	0.067089975
199	0xbe3f0002	-0.18652347
200	0x3e7aad80	0.24480247
201	0xbdd8ae48	-0.105801165
202	0xbdca541f	-0.09879326
203	0x3d07cabf	0.033152338
204	0xbe08f4d5	-0.13374646
205	0x3e913d33	0.28367004
206	0x3e29c83e	0.16580293
207	0xbe90f5dd	-0.2831258
208	0xbd8bb431	-0.06821478
209	0xbea330ea	-0.31873256
210	0x3e283cb1	0.16429402
211	0x3e7accb0	0.24492145
212	0xbe8bac18	-0.27279735
213	0xbe99d912	-0.30048424
214	0x3f58628d	0.84525377
215	0xbde57771	-0.11204422
216	0x3cf95352	0.030435238
217	0x3e0b79f7	0.13620745
218	0xbf2180d0	-0.6308718
219	0x3eb63f07	0.3559496
220	0xbf053e8d	-0.5204857
221	0x3ea2dce8	0.31809163
222	0xbc7c8370	-0.0154121965
223	0xbc5f1822	-0.013616594
224	0xbee7ba1a	-0.45259172
225	0x3ee32bc7	0.44369337
226	0x3f16c546	0.58894765
227	0x3e105581	0.14095117
228	0xbca1cd87	-0.019751323
229	0x3d0fb2fb	0.0350828
230	0x3df71bd6	0.12065856
231	0xbcbadeb6	-0.022811275
232	0x3da99c20	0.082817316
233	0xbdca7f72	-0.098875895
234	0xbe0f6aba	-0.14005557
235	0x3daf49ad	0.085589744
236	0xbe81b34f	-0.25332114
237	0xbe370e72	-0.17876604
238	0x3e29f0f7	0.16595827
239	0xbe713bf5	-0.23558028
240	0x3da4ba6c	0.0804337
241	0xbcfbe320	-0.03074795
242	0x3e190d76	0.14946541
243	0x3db1d180	0.08682537
244	0x3ec1b17e	0.37830728
245	0xbe287b2a	-0.16453233
246	0xbca33e74	-0.01992724
247	0x3d7b804a	0.061401643
248	0x3e3d5381	0.18488885
249	0xbdbc86c4	-0.09205392
250	0x3e573097	0.2101463
251	0xbc88595d	-0.016644174
252	0x3eae9cb9	0.34103945
253	0x3dc79896	0.097459
254	0xbbc9d051	-0.0061588665
255	0xbdc87e0c	-0.097896665

module.layer1.bias f4 [128]
0	0x3dcd23d2	0.10016598
1	0x3e3cbacc	0.18430632
2	0xbe5a41bf	-0.21314143
3	0x3dda7e11	0.106685765
4	0x3d7d70e9	0.061875258
5	0xbd9177d2	-0.07102932
6	0x3d80b970	0.062853694
7	0x3c8746ef	0.016513316
8	0xbdf28f60	-0.11843753
9	0xbdabb494	-0.08384052
10	0xbe0f92c8	-0.14020836
11	0xbd146ab5	-0.036234576
12	0xbe0e93d1	-0.13923575
13	0xbdd29613	-0.10282531
14	0xbd84c2ce	-0.064824685
15	0xbde4330b	-0.11142548
16	0xbd8bdae1	-0.06828857
17	0x3c56c60b	0.013108741
18	0x3c7ddeb3	0.01549499
19	0x3afe459f	0.0019399411
20	0xbe089d09	-0.13341154
21	0xbc974962	-0.018467609
22	0xbe6d3750	-0.23165631
23	0xbe26d482	-0.16292003
24	0xbd80fb27	-0.062979035
25	0x3cdc328d	0.026879573
26	0x3d147f3e	0.03625416
27	0x3d79d47a	0.06099365
28	0xbcf28a27	-0.029606892
29	0xbce4fbb4	-0.027952053
30	0xbe1ded3d	-0.1542253
31	0xbde1e74c	-0.110304445
32	0xbdcde0e1	-0.10052658
33	0x3e1b7229	0.15180267
34	0xbe99f0c7	-0.3006651
35	0xbdbd5825	-0.09245328
36	0xbe3eb2b1	-0.18622853
37	0x3e2efe64	0.1708923
38	0xbd83e065	-0.06439284
39	0xbd97499b	-0.07387086
40	0xbe0939a9	-0.13400902
41	0xbe3b4d81	-0.18291284
42	0xbd8fbeba	-0.070188
43	0xbec0f578	-0.37687278
44	0x3c66f8ba	0.014097387
45	0xbe09ce92	-0.13457707
46	0xbeb70082	-0.35742575
47	0xbe1179f3	-0.14206676
48	0xbe4b63f6	-0.19862351
49	0x3d291229	0.041277084
50	0x3e28df9a	0.16491547
51	0xbc9dcfd8	-0.019264147
52	0x3d419847	0.047264364
53	0x3ce61702	0.028087143
54	0x3db9fa05	0.090808906
55	0xbe95e645	-0.29277244
56	0xbe553f4b	-0.20824926
57	0xbe39f72c	-0.18160695
58	0x3d01c8a3	0.031685483
59	0xbdb7452b	-0.089487396
60	0xbcfd7923	-0.030941552
61	0xbe83e80e	-0.2576298
62	0x3cd55650	0.026042134
63	0x3e537c5d	0.2065291
64	0xbe5901ec	-0.2119214
65	0xbe560c93	-0.20903234
66	0xbe1aaa09	-0.15103926
67	0xbd28ea02	-0.041238792
68	0xbe135656	-0.14388403
69	0xbc156f62	-0.009120794
70	0x3e530b36	0.20609745
71	0xbd651430	-0.055927455
72	0xbe578bf3	-0.2104948
73	0x3c9a2686	0.018817198
74	0x3c439bcf	0.011939003
75	0xbe40f60e	-0.18843862
76	0xbe951322	-0.2911616
77	0x3dd556dd	0.104169585
78	0x3e38d1ab	0.18048732
79	0x3d410985	0.04712822
80	0xbdbed197	-0.0931732
81	0xbda6bda9	-0.081416436
82	0x3c5c3e45	0.013442581
83	0x3d4f664c	0.050634667
84	0xbce6e3f4	-0.028184868
85	0xbc9778fb	-0.018490305
86	0x3c2d0fd2	0.010562854
87	0xbe92c99c	-0.2866944
88	0xbe34bb5c	-0.17649597
89	0xbe22a038	-0.15881431
90	0xbd7496b7	-0.059714045
91	0xbe10a38f	-0.14124893
92	0xbd992049	-0.07476861
93	0xbb8241a0	-0.0039751083
94	0xbddfc0a0	-0.10925412
95	0xbec2f42a	-0.38076907
96	0x3c8816fa	0.016612519
97	0x3c4a291e	0.012338905
98	0x3dcd0cb0	0.100121856
99	0xbe46a3fc	-0.19398493
100	0x3d0d47bf	0.03449225
101	0xbce2a0f3	-0.027664637
102	0xbdbd4338	-0.092413366
103	0xbe7b185a	-0.24521008
104	0xbe196a5b	-0.14981978
105	0x3d556a38	0.05210325
106	0xbe124003	-0.14282231
107	0x3d96ef25	0.07369832
108	0x3d8ce7ea	0.068801716
109	0xbd21d99c	-0.03951417
110	0xbea980e1	-0.3310614
111	0xbd988e19	-0.07448978
112	0x3d3259b8	0.043542594
113	0x3e2d0d6b	0.1689965
114	0xbd7d80e4	-0.061890498
115	0xbc91feab	-0.01782163
116	0xbd5ececd	-0.05439644
117	0x3d02f7e4	0.03197469
118	0xbca8feb6	-0.020629268
119	0x3d38f74b	0.045157712
120	0xbe17fb1e	-0.14841887
121	0xbe3ee222	-0.1864095
122	0xbe68ca74	-0.2273348
123	0xbe3385ee	-0.17531559
124	0xbe7418f3	-0.23837642
125	0x3d914cf8	0.07094759
126	0xbe3b8680	-0.18313026
127	0xbe05c54d	-0.13063546

module.layer2.weight f4 [128, 128]
0	0xbd9d93ee	-0.07694231
1	0x3caca341	0.02107394
2	0xbdc8e413	-0.09809127
3	0xbb72f198	-0.003707027
4	0xbdd5566e	-0.10416876
5	0xbd8a8d42	-0.06765224
6	0xbd9d56a9	-0.07682545
7	0x3cea232a	0.02858122
8	0xbdd3999f	-0.10332035
9	0xbd818aba	-0.06325288
10	0xbda4086e	-0.0800942
11	0xbc1e3399	-0.0096558565
12	0xbdcd3605	-0.10020069
13	0xbd6a0d5b	-0.057141643
14	0xbdd463db	-0.103706084
15	0xbdde48e2	-0.10853745
16	0xbca7e159	-0.020493196
17	0xbc88815b	-0.016663244
18	0xbc9f8243	-0.019471293
19	0xbddd9db4	-0.10821095
20	0xbd3cfc6c	-0.046139166
21	0x3d3d1b67	0.04616871
22	0xbd9c8af4	-0.07643691
23	0x3c72896b	0.014803271
24	0xbde42cdf	-0.11141371
25	0xbdee5382	-0.116370216
26	0xbdcc1b50	-0.09966147
27	0xbb2183b7	-0.0024645159
28	0x3c9110e1	0.017708244
29	0xbd98f243	-0.07468083
30	0xbd1fcece	-0.039015584
31	0xbdda24c4	-0.10651544
32	0xbcd599bc	-0.026074283
33	0xbddd1d06	-0.107965514
34	0xbc91feb1	-0.017821642
35	0xbd15391a	-0.03643141
36	0x3ad0afce	0.0015921535
37	0xbe02ca61	-0.12772514
38	0x3b8e733f	0.0043472345
39	0xbdb210fc	-0.08694646
40	0xbd891746	-0.06693892
41	0xbe01eb42	-0.126874
42	0xbdc77936	-0.09739916
43	0x3d065e5b	0.032804828
44	0xbd82d6ad	-0.063886024
45	0xbd867992	-0.065661564
46	0xbdeedb6c	-0.11662945
47	0x3d4b2047	0.04959133
48	0x3c7e836d	0.015534264
49	0xbda9eae6	-0.082967564
50	0x3b24354b	0.002505618
51	0xbc801fb8	-0.015640125
52	0xbc55bec7	-0.013045973
53	0x3d183e73	0.03716893
54	0xbd4507b1	-0.04810304
55	0xbd7ab95a	-0.06121192
56	0x3d01cdd1	0.031690422
57	0xbd931f2f	-0.07183682
58	0xbcdc1d92	-0.026869569
59	0xbda22896	-0.079178974
60	0xbd66c40c	-0.05633931
61	0x3cc5dd5b	0.024153402
62	0xbc61fd95	-0.013793369
63	0xbd94e774	-0.07270709
64	0x3c6d5352	0.014485197
65	0x3bd4c5e2	0.006493316
66	0xbd07023e	-0.032961123
67	0xbdf2c9d7	-0.11854904
68	0x3cbc1df5	0.022963503
69	0xbd8f2401	-0.06989289
70	0xbdd9e819	-0.10639972
71	0xbd93d5c5	-0.07218508
72	0x3cfb2265	0.030656049
73	0xbcdfeae9	-0.027333694
74	0xbd55eaba	-0.052225806
75	0xbddea1ec	-0.10870728
76	0xbd36e4d6	-0.04465183
77	0xbd80e705	-0.062940635
78	0xbb3d6c12	-0.0028903526
79	0xbdc47864	-0.09593275
80	0xbdd3e0aa	-0.10345586
81	0x3955524f	0.00020343925
82	0x3d468fc0	0.048476934
83	0x3d3d28a6	0.046181343
84	0xbde684b4	-0.1125578
85	0x3bf827e4	0.0075731147
86	0x3c6d8409	0.014496812
87	0xbdc4733f	-0.09592294
88	0xbc8f1c7f	-0.017469643
89	0xbdfd50de	-0.1236894
90	0xbd6011bf	-0.054704424
91	0x3ca41229	0.02002819
92	0xbbdba71f	-0.006703272
93	0xbdd1c27f	-0.10242175
94	0x3d4a3bb3	0.04937334
95	0xbb9d114b	-0.0047933212
96	0xbd9ea5c0	-0.07746458
97	0xbd3c4254	-0.045961693
98	0xbd0d4a0e	-0.034494452
99	0x3b390a1d	0.0028234788
100	0xbd2f7e4e	-0.042845063
101	0x3bec369b	0.007208658
102	0x3c895328	0.016763285
103	0x3b950a2a	0.004548331
104	0xbdecaaf9	-0.11556048
105	0xbb1ba497	-0.0023749226
106	0xbde51e17	-0.1118738
107	0xbd9dc6b9	-0.07703919
108	0xbd858039	-0.06518597
109	0xbcc69c9c	-0.024244599
110	0xbd0f33b8	-0.034961432
111	0xbc7077a0	-0.014676958
112	0xbda4d314	-0.080480725
113	0xbbe4b047	-0.0069790217
114	0xbd2b718d	-0.041856337
115	0xbda811c6	-0.08206515
116	0x3c8afbff	0.016965864
117	0x38fc3fba	0.000120281664
118	0x3c231d88	0.009955771
119	0x3c3d5c53	0.011557656
120	0xbd0cd08e	-0.03437858
121	0x3bcbb74e	0.00621692
122	0xbdae238d	-0.085028745
123	0xbd72090c	-0.05909066
124	0xbd06881c	-0.032844648
125	0xbdde500b	-0.10855111
126	0xbd7ebf73	-0.0621943
127	0xbdee710a	-0.11642654
128	0xbe09c0b6	-0.1345242
129	0x3e47ee15	0.19524415
130	0xbdf37a97	-0.118886165
131	0x3e2de17b	0.16980545
132	0xbc60529e	-0.0136915725
133	0x3f112a9c	0.5670564
134	0xbe90c537	-0.28275463
135	0xbee04598	-0.43803096
136	0xbcc1e82b	-0.023670277
137	0xbe2700b2	-0.16308859
138	0xbcb7fa4a	-0.022458214
139	0xbebbdcf7	-0.3669202
140	0xbe4f3e09	-0.20238508
141	0x3c1b8e7f	0.009494423
142	0xbd67abac	-0.056560203
143	0xbdc0d472	-0.09415521
144	0xbcef4d34	-0.029211618
145	0xbe548033	-0.20752029
146	0xbd87ae28	-0.066250145
147	0x3d69ae39	0.057050917
148	0xbe884e65	-0.2662231
149	0x3db92f1f	0.09042191
150	0x3e52b4bf	0.20576762
151	0x3e5fb25f	0.21845387
152	0x3e3b6537	0.18300329
153	0xbeb751cf	-0.35804603
154	0x3d597e63	0.053099047
155	0xbcec9baf	-0.02888283
156	0xbda68d60	-0.08132434
157	0x3da46ce6	0.08028583
158	0xbe9fb9d2	-0.31196457
159	0x3cb7e6ed	0.022448981
160	0xbe8add7d	-0.27122107
161	0x3e10ab6f	0.14127897
162	0xbe9364eb	-0.28787932
163	0x3d32b34a	0.043628015
164	0xbf02d52f	-0.5110654
165	0x3ea398bf	0.31952474
166	0x3e145437	0.1448525
167	0x3d8577f9	0.065170236
168	0xbd977f73	-0.07397356
169	0x3e954c73	0.2915989
170	0x3e124970	0.14285827
171	0x3d749fc1	0.059722666
172	0xbededb2b	-0.43526587
173	0xbd0cbbb3	-0.03435869
174	0xbd2dbd74	-0.042417005
175	0x3e89e188	0.2692988
176	0xbe695f21	-0.22790195
177	0xbe719dad	-0.23595305
178	0xbdb97a1a	-0.09056492
179	0x3ddc8b41	0.10768748
180	0x3eb74852	0.35797364
181	0x3d471acc	0.04860954
182	0x3c47d596	0.012196919
183	0x3c5581c6	0.013031429
184	0xbe910473	-0.28323707
185	0xbdc9c4fe	-0.098520264
186	0x3bb1fe7a	0.0054319473
187	0xbe27cca0	-0.16386652
188	0x3f02a3e4	0.5103133
189	0xbda80b11	-0.08205236
190	0x3e68b49d	0.22725148
191	0x3db84efd	0.08999441
192	0xbec75114	-0.38929045
193	0x3ee347d4	0.44390738
194	0xbc869354	-0.016427673
195	0xbba2b52b	-0.0049654446
196	0xbe9af8e9	-0.30268028
197	0xbe868a3b	-0.26277336
198	0x3e131e3f	0.14367007
199	0x3e4c689a	0.19961777
200	0xbec795ba	-0.3898142
201	0x3e18e0f1	0.14929558
202	0x3d09eecb	0.033674996
203	0xbe535a49	-0.2063991
204	0x3df10190	0.11767876
205	0x3de6114d	0.112337686
206	0x3ea76743	0.3269597
207	0xbcb1a97a	-0.021687258
208	0xbd1a013d	-0.037598837
209	0xbc84eb1a	-0.016225386
210	0x3e15f630	0.14644694
211	0x3dce397d	0.10069559
212	0xbdd5c4f6	-0.10437958
213	0xbde82ff7	-0.113372736
214	0x3c16ea78	0.009211175
215	0xbeaf6a49	-0.34260777
216	0xbe2fabef	-0.17155431
217	0x3e0bd31a	0.13654748
218	0xbf2ddf79	-0.6791912
219	0x3ec90f6f	0.39269587
220	0xbdd0a317	-0.10187357
221	0x3eb2b48b	0.34903368
222	0xbea52b40	-0.3225956
223	0xbe626df2	-0.22112253
224	0xbc478484	-0.01217759
225	0xbf19e489	-0.6011434
226	0x3df52240	0.11969423
227	0xbe751c2e	-0.23936531
228	0xbe8991d3	-0.26869068
229	0x3e1963ec	0.14979523
230	0x3e2b6b15	0.16740067
231	0xbe3a0655	-0.18166478
232	0x3e3a1bf0	0.1817472
233	0x3d9be666	0.076123044
234	0x3f3502e1	0.7070752
235	0x3e93ebb6	0.2889077
236	0x3e715717	0.23568378
237	0xbee8f6ac	-0.45500696
238	0xbef859d1	-0.48506024
239	0x3ea6a345	0.3254644
240	0xbe1b3379	-0.15156354
241	0xbe445177	-0.19171701
242	0x3e8e3bda	0.27780038
243	0x3dcc24b0	0.09967935
244	0xbee2d1cd	-0.4430069
245	0x3f44eca7	0.769236
246	0xbe81f4f7	-0.25382206
247	0xbde4d02a	-0.11172517
248	0xbf2ae00a	-0.66748106
249	0x3e062048	0.13098252
250	0xbe85a20c	-0.26100194
251	0xbe6a9cb0	-0.22911334
252	0xbf3e8b76	-0.7443155
253	0xbf113ec0	-0.56736374
254	0xbf089a9e	-0.5336093
255	0xbe3ba4cb	-0.18324582

module.layer2.bias f4 [128]
0	0x3d124546	0.035710596
1	0x3db809df	0.08986258
2	0xbd828409	-0.0637284
3	0xbd308f0f	-0.04310518
4	0xbd29ff52	-0.041503258
5	0xbca82964	-0.02052755
6	0xbdc868d5	-0.0978562
7	0xbda50bb6	-0.08058874
8	0x3e03e6a8	0.12880957
9	0x3accaa5e	0.0015614738
10	0xbd8d307b	-0.068940125
11	0x3c73de99	0.014884614
12	0xbdb093e0	-0.08621955
13	0x3ebc7a0d	0.36811867
14	0xbcc2fea1	-0.023803057
15	0xbd5de837	-0.054176535
16	0x3c36154a	0.011113474
17	0xbd193c61	-0.037411097
18	0xbd59292d	-0.053017784
19	0x3c882d70	0.016623229
20	0x39edc3f7	0.00045350168
21	0xbce0476f	-0.027377812
22	0x3d621951	0.055199925
23	0x3b2563ee	0.0025236565
24	0x3c43453e	0.011918364
25	0x3c1048e8	0.008806445
26	0xbcacf8c1	-0.021114709
27	0xbc9f49e8	-0.019444421
28	0xbdbd25bc	-0.09235713
29	0x3e3289f3	0.17435436
30	0xbdb46e62	-0.08810116
31	0xbdcff4b9	-0.10154099
32	0x3dc21c56	0.09478061
33	0x3e2ff129	0.17181839
34	0xbdf7294c	-0.12068424
35	0xbd960ba3	-0.07326438
36	0x3dfc089e	0.12306331
37	0xbd1b6fcb	-0.03794841
38	0xbd8a70be	-0.06759785
39	0xbd045483	-0.03230716
40	0xbd537978	-0.051629514
41	0xbdea3b48	-0.11437088
42	0x3bfe11ef	0.0077536027
43	0xbd542fc1	-0.051803354
44	0xbdc3a12f	-0.09552228
45	0xbd7fc9f6	-0.062448464
46	0xbd31b665	-0.043386836
47	0x3e6acd8d	0.22929974
48	0xbdb8755f	-0.09006762
49	0xbce837a0	-0.028346837
50	0xbda01f80	-0.07818508
51	0x3d665877	0.05623671
52	0x3d064eb8	0.032789916
53	0xbdd120b8	-0.10211319
54	0xbd6fb08a	-0.05851797
55	0xbdce7126	-0.10080175
56	0x3d96a573	0.07355776
57	0xbd585f4d	-0.05282526
58	0x3e3b47a6	0.1828905
59	0x3d0cd913	0.034386706
60	0xbdb3acc1	-0.087731846
61	0x3d44df2d	0.0480644
62	0x3c4f381e	0.012647657
63	0xbcb22b1e	-0.021749076
64	0x3d501dfe	0.050809853
65	0xbdbc20df	-0.09185957
66	0x3dcf65d3	0.10126843
67	0xbd78bed2	-0.060728855
68	0xbd85bc70	-0.06530082
69	0xbda3cb81	-0.079978
70	0xbac8dd18	-0.001532468
71	0xbd511117	-0.05104169
72	0xbe6fec76	-0.23430046
73	0xbd43cba5	-0.047801632
74	0xbbc1b938	-0.0059119724
75	0xbdce232e	-0.10065304
76	0x3d6b97e8	0.057517916
77	0x3d4796cf	0.048727807
78	0xbd93c8af	-0.07216012
79	0x3ceed940	0.029156327
80	0xbc351ef6	-0.011054745
81	0x3c2e46d7	0.010637007
82	0xb7ac7415	-2.0558053e-05
83	0x3ea61961	0.32441238
84	0x3e81bc09	0.25338772
85	0xbc6a6f2e	-0.014308734
86	0xbd625e1a	-0.055265523
87	0xbdc074f7	-0.09397309
88	0xbda141ef	-0.07873904
89	0xbdc39257	-0.095493965
90	0xbb83d16f	-0.004022769
91	0xbcaf756c	-0.021418296
92	0x3e476a8c	0.19474238
93	0xbcf5dd75	-0.030012826
94	0x3b8c32fc	0.0042785387
95	0xbdd77e96	-0.10522191
96	0xbe6307d4	-0.22170955
97	0x3ec4bf8f	0.38427398
98	0xbce23522	-0.027613226
99	0xbd9b0226	-0.07568769
100	0x3dbe8f22	0.09304644
101	0x3e428394	0.18995506
102	0xbdf0fd5c	-0.117670745
103	0x3d4e87f0	0.05042261
104	0x3df49bd5	0.11943785
105	0xbd90f332	-0.07077636
106	0x3c99777e	0.018733736
107	0x3d093cbf	0.033505198
108	0x3e79dde1	0.24401046
109	0xbd956b00	-0.07295799
110	0xbdb25fb3	-0.087096594
111	0x39e97ac5	0.00044532694
112	0x3d569809	0.052391086
113	0x3c10b367	0.008831835
114	0xbc92af50	-0.017905861
115	0xbd0b2f36	-0.03398057
116	0xbdcdd22c	-0.10049853
117	0x3e072a45	0.13199718
118	0xbd1a2d90	-0.037641108
119	0x3c4c3ad0	0.012465194
120	0x3cb42582	0.021990541
121	0xbd297e10	-0.04137999
122	0xbb9bcb59	-0.0047544655
123	0xbd55d284	-0.052202716
124	0x3b897923	0.004195349
125	0xbd509a34	-0.05092831
126	0xbd1e89e3	-0.038705718
127	0xbd7400e9	-0.05957118

module.layer3.weight f4 [4, 128]
0	0xbde0d0f4	-0.10977355
1	0x3e99d8a8	0.30048108
2	0xbc62e730	-0.013849065
3	0x3e82f4e2	0.25577456
4	0xbb7485e3	-0.0037311248
5	0xbd776120	-0.06039536
6	0xbbb48bd6	-0.005509834
7	0x3cc61bc6	0.024183165
8	0x3d175c33	0.036953162
9	0xbe82e3dd	-0.2556447
10	0xbd816279	-0.0631761
11	0xbcbcd406	-0.02305032
12	0xbbbc4678	-0.005745705
13	0xbdac3507	-0.08408552
14	0xbd83b306	-0.064306304
15	0x3cdff570	0.027338713
16	0x3c3a6338	0.011376195
17	0x3c2fde88	0.010734208
18	0xbd52d533	-0.051472854
19	0x3c03320d	0.0080075385
20	0x3d8f4d68	0.06997186
21	0xbc593641	-0.013257564
22	0xbdb26803	-0.08711245
23	0xbf06aa1e	-0.5260333
24	0xbd87ce87	-0.06631189
25	0xbdcaa09e	-0.098939165
26	0x3e2b3113	0.16717939
27	0xbd22d6c6	-0.039755605
28	0xbdcea9ab	-0.10090955
29	0x3ef589c5	0.47956672
30	0x3ced4121	0.02896172
31	0xbebf1297	-0.3731887
32	0x3d1c7401	0.038196567
33	0x3f50c249	0.81546456
34	0xbd080794	-0.033210352
35	0x3cc57ead	0.024108255
36	0x3d9f24aa	0.07770665
37	0xbd8e27e8	-0.06941205
38	0xbe911077	-0.28332874
39	0xbdd38791	-0.103285916
40	0x3c951692	0.018199239
41	0xbcaac05a	-0.020843673
42	0xbc95a2e3	-0.018266147
43	0x3d41fc86	0.047359966
44	0xbd096086	-0.033539318
45	0xbdea8fff	-0.11453246
46	0xbd3da27a	-0.046297528
47	0xbd70f27c	-0.058825
48	0x3c8600be	0.016357776
49	0x3c615dab	0.013755242
50	0xbd6ec36e	-0.058291845
51	0x3d000b4b	0.03126077
52	0x3d8306d9	0.063977905
53	0xbd8705e1	-0.06592918
54	0xbc420a61	-0.011843295
55	0xbd7dd0af	-0.061966594
56	0x3d9aa53f	0.075510494
57	0xbdbbf727	-0.09178
58	0x3e93446b	0.28763136
59	0x3d4d3265	0.050096888
60	0xbc056ef4	-0.008144129
61	0xbe85f269	-0.26161507
62	0xbd14a933	-0.036294173
63	0xbdaf1bf6	-0.08550255
64	0xbd7cb8c1	-0.061699633
65	0xbd592536	-0.053014003
66	0x3e0b8c73	0.13627796
67	0x3cce7aad	0.02520498
68	0xbd9a37f5	-0.07530204
69	0xbd931589	-0.07181842
70	0xbdb0ed34	-0.08638993
71	0x3ba1557b	0.00492352
72	0xbe523cd7	-0.20531021
73	0xbeb42e50	-0.35191584
74	0x3d1d6dcd	0.038434792
75	0xbda2fe14	-0.07958618
76	0x3b674ceb	0.003529365
77	0xbd4232ab	-0.047411602
78	0xbdc7b78e	-0.09751807
79	0xbd4a49b1	-0.049386684
80	0xbd95360f	-0.072857015
81	0x3cd5d777	0.026103718
82	0x3c313182	0.010815026
83	0x3e6a37fa	0.22872916
84	0x3f23a9a9	0.63930756
85	0xbd7722ad	-0.060335804
86	0xbd04a22d	-0.032381225
87	0xbdcd98e8	-0.1003893
88	0xbe46ce8e	-0.19414732
89	0xbd410ea1	-0.04713309
90	0xbd57cd97	-0.0526863
91	0xbc170bc6	-0.009219116
92	0x3d19d182	0.037553318
93	0xbd9cfb4a	-0.07665117
94	0x3ce6db06	0.02818061
95	0x3d16c6ae	0.03681057
96	0xbea35771	-0.3190265
97	0xbcfe5767	-0.031047536
98	0x3cf5610b	0.0299535
99	0xbdad8485	-0.08472542
100	0x3c74f584	0.014951114
101	0xbe3a796c	-0.18210381
102	0x3cf83e76	0.030303221
103	0xbdbc13b0	-0.091834426
104	0xbca1c8c8	-0.01974906
105	0xbd7f3397	-0.06230506
106	0x3b6c05aa	0.0036014118
107	0x3cce77ca	0.025203604
108	0x3db07512	0.086160794
109	0xbdfd92c5	-0.1238151
110	0x3d2f7c80	0.04284334
111	0xbd5129e8	-0.051065356
112	0xbd529979	-0.051415894
113	0xbdea0053	-0.11425843
114	0xbd98011f	-0.07422089
115	0xbdcdb38d	-0.10044012
116	0xbcc293da	-0.023752142
117	0x3d71905d	0.058975566
118	0xbcfb7ee9	-0.030700164
119	0xbd486f24	-0.048934117
120	0xba791f0e	-0.00095032237
121	0xbefa4ea4	-0.48888123
122	0x3c53e3f5	0.012932767
123	0xbd905602	-0.07047655
124	0x3caffde4	0.02148337
125	0x3cf175ba	0.029475082
126	0x3cdf4bcf	0.027257828
127	0xbd167531	-0.036732856
128	0x3c78f1c2	0.015194358
129	0x3d8b8a3f	0.06813478
130	0xbda179d6	-0.078845665
131	0x3d1db44f	0.038502034
132	0xbd80c605	-0.06287769
133	0x3d796157	0.060883846
134	0xbdb250da	-0.087068275
135	0xbb9b5f71	-0.004741602
136	0x3c15606f	0.00911723
137	0xbdb29a12	-0.08720793
138	0x3c94d98d	0.018170143
139	0xbd53d1f7	-0.05171391
140	0xbd286612	-0.041112967
141	0xbd081c9f	-0.03323042
142	0xbd5ca92c	-0.053872272
143	0xbcab1f83	-0.02088905
144	0xbbec347a	-0.007208404
145	0x3d006375	0.03134485
146	0x3d61b0a5	0.055100102
147	0xbc94555f	-0.018107114
148	0xbd6e4c71	-0.05817837
149	0xbe1e3952	-0.15451553
150	0xbd5771c6	-0.052598737
151	0xbebd6ebe	-0.36998552
152	0x3cca58f4	0.02470062
153	0x3d1540bc	0.03643869
154	0xbdc8650a	-0.09784897
155	0xbd54d3a3	-0.051959645
156	0xbc05af8e	-0.008159531
157	0x3e90c5e1	0.2827597
158	0xbdc3376b	-0.095320545
159	0xbef38ad8	-0.47566867
160	0xbd6bd789	-0.057578597
161	0x3e95124b	0.2911552
162	0xbd92b8ed	-0.07164178
163	0x3c8c0bc7	0.01709546
164	0xbd5a68e1	-0.053322677
165	0x3d6d76ad	0.057974506
166	0xbe811f63	-0.2521926
167	0x3c108919	0.008821749
168	0x3c7ab4e1	0.015301914
169	0x3cf21ec0	0.029555678
170	0xbd617177	-0.05503985
171	0xbd24e55f	-0.040257808
172	0xbd09a078	-0.0336003
173	0x3d89775a	0.06712218
174	0xbe145fb0	-0.14489627
175	0x3d05f77e	0.03270673
176	0x3ae37d9e	0.0017356162
177	0xbd382959	-0.044961307
178	0xbd6f1576	-0.058370076
179	0xbd9214f6	-0.07132904
180	0xb9da4447	-0.0004163107
181	0xbd7d85a6	-0.061895035
182	0xbd69879f	-0.057014104
183	0xbd559d05	-0.0521517
184	0xbdaffb4b	-0.08592852
185	0x3c693e35	0.014236023
186	0x3da33b63	0.079703115
187	0xbd6a5404	-0.05720903
188	0x3c8424c2	0.016130809
189	0xbe557e21	-0.20848896
190	0xbdc6c1ea	-0.09704955
191	0xbd56ad8b	-0.052411597
192	0xbdab90cc	-0.08377227
193	0xbcc112c0	-0.023568511
194	0xbd8c155a	-0.0684001
195	0x3c6a99cf	0.014318897
196	0x3cddb901	0.027065756
197	0xbd0b7e8e	-0.03405624
198	0x3d7e9d75	0.06216188
199	0xbd0073a6	-0.03136029
200	0xbef583be	-0.47952074
201	0xbe441797	-0.19149624
202	0xbc47310a	-0.012157688
203	0xbd40aca3	-0.04703964
204	0xbdc83e50	-0.0977751
205	0xbd8e4ba8	-0.06948024
206	0xbdf74518	-0.120737255
207	0xbc48db0f	-0.012259259
208	0xbd12f890	-0.03588158
209	0xbd4d868a	-0.050177135
210	0xbcaeddfc	-0.021346085
211	0x3e7e1787	0.24813662
212	0x3e936705	0.28789535
213	0xbc5d2474	-0.013497461
214	0x3ce05f06	0.02738906
215	0x3ca1d459	0.019754576
216	0xbe16b7af	-0.14718507
217	0x3d02245b	0.031772953
218	0xbdbc1b0c	-0.09184846
219	0xbd2d1bdb	-0.042262893
220	0x3d2ce2c0	0.042208433
221	0xbd996684	-0.074902564
222	0x3c00a83b	0.007852609
223	0xbc954c04	-0.018224724
224	0xbe5d0d14	-0.2158702
225	0x3a36bbc3	0.00069707277
226	0x3d0b29cd	0.03397541
227	0xbc8566f0	-0.016284436
228	0xbcdeebdf	-0.027212081
229	0xbc719730	-0.014745519
230	0x3b8c0a28	0.0042736717
231	0x3c28d5c8	0.010304876
232	0xbda2494b	-0.07924136
233	0xbd0f6c8a	-0.03501562
234	0xbd93811d	-0.07202361
235	0xbde2c9e1	-0.110736616
236	0x3d799e41	0.06094194
237	0xbd8eda5e	-0.06975244
238	0x3cb33285	0.021874676
239	0xbe0bb220	-0.13642168
240	0xbd325cf9	-0.043545697
241	0x3d6c7d6d	0.057736803
242	0x3c4fe67c	0.012689229
243	0xbdc6b5c2	-0.09702636
244	0xbcbadc19	-0.022810029
245	0xbd06cd41	-0.03291059
246	0x3cfc649d	0.030809695
247	0xba8ed847	-0.0010898196
248	0xbcbccb8f	-0.023046283
249	0xbec916cb	-0.39275202
250	0xbdd957be	-0.106124386
251	0x3ccbb6e5	0.024867484
252	0xbd25be09	-0.040464435
253	0x3d2d88a0	0.042366624
254	0xbd5ec124	-0.054383412
255	0x3c9fe4ca	0.019518275

module.layer3.bias f4 [4]
0	0xbc38cb39	-0.011278921
1	0x3db2d5c2	0.08732177
2	0xbd93c388	-0.07215029
3	0x3e315f96	0.1732162
