HW4/hw_nerf/ckpt.pth (torch, 90986 bytes, 6 tensors)

module.layer1.weight f4 [128, 39]
0	0xbe214d23	-0.15752082
1	0xbdef1cb5	-0.11675397
2	0x3ce500b8	0.027954444
3	0xbb3af2c0	-0.0028526038
4	0x3e1ad4f8	0.15120304
5	0xbd885fc7	-0.06658893
6	0x3dabc91e	0.083879694
7	0xbe14dd2e	-0.14537498
8	0xbdebc288	-0.11511713
9	0xbd224eb6	-0.039625846
10	0xbdb50851	-0.08839477
11	0xbca2f3c8	-0.019891635
12	0x3dc20f64	0.09475592
13	0xbdf28a73	-0.11842813
14	0xbc71e940	-0.014765084
15	0x3df8e074	0.12152186
16	0xbd9fda7b	-0.07805344
17	0x3db57f88	0.08862215
18	0x3dd6c2f4	0.10486403
19	0xbe01f9a4	-0.12692887
20	0x3dc0b290	0.09409058
21	0x3d948344	0.072515994
22	0x3dda3f44	0.10656598
23	0x3cecd530	0.02891025
24	0x3b595300	0.0033161044
25	0xbd8fcc43	-0.07021382
26	0x3e21b6da	0.15792409
27	0x3cd80260	0.02636832
28	0xbd95e7f4	-0.07319632
29	0x3e11901a	0.14215127
30	0x3c9727f8	0.018451676
31	0xbd108b22	-0.035288937
32	0xbdb1af43	-0.08676007
33	0x3e159524	0.14607674
34	0xbdb3b237	-0.08774226
35	0xbe10df66	-0.1414772
36	0x3d7fdf3c	0.062468752
37	0xbd00d0c0	-0.03144908
38	0xbcf79028	-0.030220106
39	0x3db7ab40	0.0896821
40	0xbde5ed72	-0.1122693
41	0xbde09686	-0.1096621
42	0x3d6f67ac	0.05844848
43	0x3c915938	0.017742738
44	0x3d18db00	0.03731823
45	0xbd05bf68	-0.032653242
46	0xbdb727d5	-0.08943144
47	0x3d1f2588	0.038854152
48	0xbdfac696	-0.122449085
49	0xbdcd4e00	-0.10024643
50	0xbd14d202	-0.03633309
51	0xbdd55d79	-0.10418219
52	0xbe05c1a8	-0.13062155
53	0x3d856572	0.0651349
54	0xbd108a1c	-0.03528796
55	0x3c92fe20	0.017943442
56	0x3e1d0fa4	0.15337998
57	0xbba57c20	-0.0050501972
58	0x3d85fff6	0.06542961
59	0xbe1bc1d1	-0.15210654
60	0xbdd88a50	-0.10573256
61	0x3d77dbec	0.06051247
62	0x3cf3d320	0.029763758
63	0x3c75eeb0	0.015010521
64	0xbe17fcf6	-0.1484259
65	0xbde46072	-0.11151208
66	0xbdd31c24	-0.10308102
67	0x3a596b00	0.00082938373
68	0xbe066c8e	-0.13127348
69	0x3e094692	0.13405827
70	0xbcf5bb70	-0.029996604
71	0xbdf8bace	-0.12145005
72	0xbe1525ee	-0.1456525
73	0xbda1c324	-0.07898548
74	0xbbf9f780	-0.0076283813
75	0x3a272c00	0.0006377101
76	0x3da95176	0.082674906
77	0x3de1fe10	0.11034787
78	0xbc307980	-0.010771155
79	0x3daafbc0	0.08348799
80	0xbd93a962	-0.072100416
81	0x3dff1b94	0.12456432
82	0x3dc33f8c	0.09533605
83	0xbdb58c7e	-0.088646874
84	0xbcacd810	-0.02109912
85	0x3bede9c0	0.007260531
86	0x3dbb457c	0.091441125
87	0xbe182de0	-0.1486125
88	0xbdec18c8	-0.11528164
89	0x3ca0fcc8	0.019651785
90	0x3dbd4f58	0.09243649
91	0xbd8353db	-0.064124785
92	0xbd86845e	-0.06568216
93	0xbdbd96d0	-0.09257281
94	0x3dc6d8e0	0.097093344
95	0xbdd38c1a	-0.103294566
96	0xbce72788	-0.028217092
97	0xbc035660	-0.008016199
98	0xbd9d3098	-0.07675284
99	0x3d76be30	0.06023997
100	0xbc6f6050	-0.014610365
101	0xbde1c1fe	-0.11023329
102	0xbc696ee0	-0.014247626
103	0xbda4dd6a	-0.08050044
104	0xbe1a2e67	-0.15056764
105	0x3d8ebd56	0.06969707
106	0x3e070132	0.1318405
107	0xbd27ffb8	-0.041015357
108	0x3b9d4900	0.004799962
109	0xbe1c4a2a	-0.15262666
110	0x3da5e626	0.08100538
111	0xbd4b8484	-0.049686924
112	0xbd2cd978	-0.04219958
113	0x3d6b1398	0.057391733
114	0x3e1d6052	0.15368775
115	0xbe2385f5	-0.1596907
116	0xbdea6214	-0.11444488
117	0xbd22e850	-0.03977233
118	0xbdafe5ad	-0.08588729
119	0x3c956f80	0.018241644
120	0xbc144d20	-0.009051591
121	0x3e19655e	0.14980075
122	0x3ab42e00	0.0013746619
123	0x3dfebdc4	0.12438539
124	0x3c0545a0	0.008134276
125	0xbe097aa8	-0.13425696
126	0xbd96a20f	-0.07355129
127	0x3d53d12c	0.051713154
128	0x3e230b8e	0.15922377
129	0xbd2b2996	-0.041787706
130	0xbe0382e3	-0.12842898
131	0xbe002668	-0.12514651
132	0x3e1b25bc	0.15151113
133	0xbdc793d6	-0.09744994
134	0xbd978d8a	-0.07400043
135	0x3c98f7d8	0.018672869
136	0x3e104624	0.14089257
137	0x3dc94334	0.09827271
138	0x3e1cefa6	0.15325794
139	0xbc9f8f88	-0.01947762
140	0x3e1770a4	0.14789063
141	0xbdf57ee2	-0.119870916
142	0x3d456628	0.048193127
143	0xbd537cd4	-0.051632717
144	0xbd035648	-0.032064706
145	0x3d1f073c	0.03882526
146	0xbd97cb51	-0.074118264
147	0x3d18ac84	0.0372739
148	0xbe12660a	-0.14296737
149	0x3e0baee4	0.13640934
150	0x3d2fd524	0.042927876
151	0xbcb3b738	-0.021937951
152	0xbd93fe26	-0.07226209
153	0xbc30e440	-0.010796607
154	0x3dcd2678	0.10017103
155	0xbe09767e	-0.13424107
156	0xbd7a41ee	-0.06109803
157	0x3dfae108	0.122499526
158	0xbd6ed0e8	-0.058304697
159	0xbd73d998	-0.059533685
160	0xbcf3bf80	-0.0297544
161	0x3d6c177c	0.057639584
162	0x3deb47fc	0.11488339
163	0x3c2d0ed0	0.010562614
164	0xbe15adaa	-0.14617029
165	0x3e2119c2	0.15732482
166	0xbdc8ac4a	-0.097984865
167	0xbc708720	-0.014680654
168	0x3e0036e0	0.12520933
169	0x3d961344	0.073278934
170	0xbe0a9fa0	-0.13537455
171	0x3d3ed168	0.046586424
172	0x3db0a396	0.086249515
173	0xbd5a7104	-0.053330436
174	0x3e0c65c4	0.13710696
175	0x3c9b9708	0.018992916
176	0x3d6c5fd4	0.057708576
177	0x3d271808	0.040794402
178	0x3d8aa914	0.0677053
179	0x3e1dc6c8	0.1540786
180	0xbde9e2e8	-0.11420232
181	0xbe1707ff	-0.14749144
182	0xbd09ec3c	-0.033672556
183	0xbdb4b261	-0.088230856
184	0xbe168137	-0.14697729
185	0xbcb90948	-0.022587433
186	0xbe1b8fd4	-0.15191585
187	0x3db7737c	0.08957574
188	0xbe04a60a	-0.12953964
189	0xbdecd6e4	-0.11564425
190	0xbca64d50	-0.020300537
191	0x3d3ce5d8	0.046117634
192	0xbe0e6584	-0.13905913
193	0x3cfa49b8	0.03055273
194	0x3da3d0c6	0.07998805
195	0x3de37f18	0.111082256
196	0xbba3f960	-0.005004093
197	0xbdf39648	-0.11893898
198	0xbd621a76	-0.055201016
199	0x3deb6bd4	0.11495176
200	0xbe20cd02	-0.15703204
201	0xbd8be86c	-0.0683144
202	0xbdf2e140	-0.11859369
203	0xbda208c4	-0.07911828
204	0x3daf39de	0.08555959
205	0xbd8995db	-0.06718036
206	0xbda0d967	-0.07853966
207	0x3d9dd39a	0.077063754
208	0x3dfd7b78	0.123770654
209	0x3d7ca2d8	0.061678737
210	0xbc2f9cb0	-0.01071851
211	0x3c964b80	0.018346548
212	0x3da6296a	0.08113368
213	0xbdef2052	-0.116760865
214	0x3e021320	0.12702608
215	0x3dbdb1f8	0.092624605
216	0xbdd67866	-0.10472183
217	0x3dabb65a	0.0838439
218	0x3e05016a	0.1298882
219	0x3dfe49f8	0.12416452
220	0x3ca20700	0.019778728
221	0x3d3b8934	0.045785144
222	0x3d899146	0.06717162
223	0x3d0b847c	0.034061894
224	0xbd635c04	-0.055507675
225	0x3dfdef00	0.12399101
226	0x3cadbce0	0.021208227
227	0xbd207250	-0.039171517
228	0x3dc9d4f4	0.09855071
229	0xbd98f425	-0.07468442
230	0x3d8bf0dc	0.0683305
231	0x3d624944	0.055245653
232	0x3d9838d8	0.07432717
233	0xbe20cea6	-0.1570383
234	0x3e00bf10	0.12572885
235	0x3d9fc4f2	0.07801236
236	0x3db03ed6	0.08605735
237	0x3e23b440	0.15986729
238	0x3cd8f2f0	0.02648303
239	0x3d0c7fec	0.034301683
240	0xbdd5fa35	-0.10448114
241	0xbe144671	-0.14479996
242	0xbdb241d4	-0.08703962
243	0xbe0ebe32	-0.13939741
244	0x3dd33ea4	0.10314682
245	0xbdda103a	-0.10647626
246	0x3e1e50f8	0.15460575
247	0xbda1b0a3	-0.07895019
248	0xbe221abf	-0.15830515
249	0xbcb53418	-0.022119567
250	0xbdd77bca	-0.10521658
251	0xbd824c84	-0.063622504
252	0xbdb42313	-0.087957524
253	0x3d46a76c	0.04849951
254	0x3d699bb8	0.05703327
255	0x3da127a6	0.078688905

module.layer1.bias f4 [128]
0	0xbd4022e2	-0.046908267
1	0x3daef0a2	0.08541991
2	0xbe0cf1b1	-0.13764073
3	0x3d85e124	0.06537083
4	0xbdbc113d	-0.091829754
5	0xbdba2525	-0.09089116
6	0xbdc93ab4	-0.0982565
7	0x3d9889a4	0.07448128
8	0x3decf8c4	0.11570886
9	0xbde013ea	-0.10941298
10	0xbddb1770	-0.1069783
11	0xbdcd7508	-0.100320876
12	0x3d79d468	0.060993582
13	0xbd420dd6	-0.047376476
14	0x3d60910c	0.054825827
15	0x3d972ffe	0.07382201
16	0x3d81a2b2	0.0632986
17	0x3e1b362a	0.1515738
18	0xbe05e8f7	-0.1307715
19	0x3d82ac12	0.06380476
20	0x3da7be66	0.081906125
21	0x3d4bf978	0.04979846
22	0xbd0b2ab8	-0.033976287
23	0xbbecaf00	-0.00722301
24	0x3d596be8	0.053081423
25	0xbc985890	-0.018596917
26	0xbd6c6936	-0.057717524
27	0x3e008a6e	0.12552807
28	0xbe202200	-0.1563797
29	0x3d93fa7a	0.07225509
30	0xbdededb2	-0.116176024
31	0xbc4c4030	-0.012466475
32	0x3cd914e0	0.026499212
33	0xbdf2e949	-0.11860902
34	0x3e1a558e	0.15071699
35	0xbde9b3f8	-0.114112794
36	0xbdd590fc	-0.10428044
37	0xbe1823f7	-0.1485747
38	0xbd84caed	-0.064840175
39	0xbd2bce00	-0.041944504
40	0x3cf8cd88	0.030371442
41	0xbbe0f4a0	-0.006865099
42	0x3d44cef0	0.048048913
43	0x3d0fa5ac	0.035070106
44	0xbd70d0b8	-0.0587928
45	0x3baf3900	0.005347371
46	0x3d429f4c	0.0475152
47	0xbdeb5784	-0.11491302
48	0x3ddede7c	0.10882279
49	0x3e181b76	0.14854226
50	0xbd2d43cc	-0.042300984
51	0xbdd1a04c	-0.10235652
52	0xbd9aee52	-0.07564987
53	0x3d9a8112	0.075441495
54	0x3bb46160	0.005504772
55	0x3bd73540	0.006567627
56	0xbc470e00	-0.012149334
57	0x3e1d9612	0.15389279
58	0xbe07c54e	-0.1325886
59	0xbe163a76	-0.14670739
60	0xbdf4173a	-0.119184926
61	0x3c842190	0.016129285
62	0xbdfa07f2	-0.12208547
63	0x3d077cd8	0.033078045
64	0xbd5410b0	-0.051773727
65	0xbe06affd	-0.13153072
66	0x3e0fe4e2	0.14052156
67	0x3dda658c	0.106639
68	0x3e1974c6	0.14985952
69	0xbdbb3a82	-0.09142019
70	0xbde7af3c	-0.1131272
71	0xbde4c268	-0.111698925
72	0x3e1c6500	0.15272903
73	0x3de93c34	0.11388436
74	0xbde73619	-0.11289615
75	0x3d8a8676	0.06763928
76	0xbe13be53	-0.14428072
77	0x3bc67300	0.0060561895
78	0x3c620780	0.013795733
79	0xbd4d499e	-0.050119035
80	0x3d42b4fc	0.04753588
81	0x3e20c836	0.15701374
82	0x3e178398	0.14796293
83	0x3cc64138	0.02420102
84	0x3e0ea22e	0.13929054
85	0x3ba32a60	0.0049794167
86	0x3da12e3c	0.07870147
87	0xbcaece38	-0.021338567
88	0x3cb5e8e0	0.02220577
89	0x3d151eb0	0.03640622
90	0x3e1b45ba	0.15163317
91	0xbdcacdf6	-0.09902565
92	0xbc3d9d00	-0.011573076
93	0xbde9e4f2	-0.11420621
94	0xbd8463b4	-0.06464329
95	0x3cd53388	0.026025549
96	0xbde66da4	-0.11251381
97	0x3de65c80	0.11248112
98	0xbd78eb28	-0.060771137
99	0xba81ed00	-0.000991255
100	0xbe223030	-0.15838695
101	0xbd8c2dd9	-0.06844682
102	0x3e10e1f8	0.141487
103	0x3dc588dc	0.096452445
104	0x3b7874c0	0.0037911385
105	0x3df948ac	0.12172064
106	0xbd7d39d2	-0.06182272
107	0x3da93026	0.08261137
108	0x3e1cd9b0	0.15317416
109	0x3d9c8bae	0.07643829
110	0xbc917d28	-0.017759874
111	0x3e228aec	0.15873307
112	0xbdbdf892	-0.09275927
113	0xbd0e29b0	-0.034707725
114	0x3e03af2c	0.12859792
115	0x3da5216e	0.08063017
116	0xbe02be1e	-0.12767836
117	0x3e231d76	0.15929207
118	0x3c659980	0.014013648
119	0x3d8e3978	0.06944555
120	0xbdcc5e97	-0.09978979
121	0x3da8760e	0.08225642
122	0xbd9b3f5e	-0.07580446
123	0xbe1205d1	-0.14260031
124	0x3daaf872	0.083481684
125	0x3c1e7780	0.009672046
126	0xbd9637aa	-0.07334836
127	0x3bf952a0	0.0076087266

module.layer2.weight f4 [128, 128]
0	0x3d75010a	0.059815444
1	0x3d436d06	0.047711395
2	0x3c9de8e4	0.01927609
3	0x3d9a480b	0.07533272
4	0x3cd3b5d4	0.025843538
5	0x3b067ce0	0.0020521209
6	0x3d6dcfe6	0.058059596
7	0xbd1e07a5	-0.03858151
8	0x3c4d54c8	0.01253242
9	0x3d286c46	0.041118883
10	0xbc7b1d18	-0.015326761
11	0xbd7d81ee	-0.06189149
12	0x3d5ab362	0.05339373
13	0x3d56d8ba	0.05245278
14	0x3c73e600	0.014886379
15	0x3d8bab89	0.06819827
16	0x3d4f61aa	0.05063025
17	0x3d241266	0.04005661
18	0xbd05a1c5	-0.03262498
19	0xbd0acc75	-0.03388639
20	0x3d1420d0	0.036164105
21	0xbd9d23b6	-0.07672827
22	0xbc0a47d8	-0.00843998
23	0xbd822f20	-0.06356645
24	0x3d2082c6	0.039187215
25	0xbcf7dda4	-0.030257054
26	0xbd077f4f	-0.033080395
27	0x3d4bd372	0.049762197
28	0xbd318fbd	-0.04334997
29	0x3c1910a0	0.009342343
30	0x3d9f1763	0.077681325
31	0x3ca1858c	0.019717
32	0x3d8f1d55	0.069880165
33	0x3db3a4ef	0.08771693
34	0xbd09a83f	-0.033607718
35	0xbd6e726e	-0.058214597
36	0xba358c80	-0.0006925538
37	0x3d940411	0.07227338
38	0xbd6c1dc9	-0.057645593
39	0x3d7bfb06	0.06151869
40	0x3bd505b0	0.006500922
41	0xbc750f90	-0.014957324
42	0x3d5db0f2	0.054123826
43	0xbc413b78	-0.011793964
44	0x3d47129e	0.04860174
45	0xbca41ac8	-0.020032302
46	0x3d3e6e3a	0.04649184
47	0xbd43b895	-0.047783453
48	0x3d2cf4f6	0.0422258
49	0x3d7705e6	0.06030836
50	0x3d609b26	0.05483546
51	0x3d8afa47	0.06786018
52	0xbd745830	-0.059654415
53	0xbd5f240a	-0.05447773
54	0xbda2418c	-0.07922658
55	0xbd0dcb12	-0.03461749
56	0xbcff1f96	-0.031142991
57	0xbc5c7808	-0.013456352
58	0x3cc67790	0.024226934
59	0x3cc1bd34	0.02364979
60	0x3d214b02	0.039378174
61	0x3d4c2b6a	0.04984609
62	0xbd46ffa4	-0.04858364
63	0x3c5a04b8	0.013306789
64	0x3c7dfec0	0.015502632
65	0x3d6b93b2	0.0575139
66	0x3d7c0ada	0.061533786
67	0xbd2805e7	-0.041021254
68	0x3cd6a834	0.026203252
69	0x3d9f9b69	0.07793314
70	0xbd91f82b	-0.071274124
71	0xbd825419	-0.063636966
72	0xbd1403fc	-0.036136612
73	0x3d53acde	0.05167853
74	0xbc7e9698	-0.015538834
75	0x3c7e7eb0	0.015533134
76	0x3d873caf	0.06603371
77	0xbc398128	-0.011322297
78	0x3d1d6ca2	0.03843368
79	0x3db0d7ab	0.086348854
80	0xbdaa238e	-0.08307563
81	0xbda91275	-0.082554735
82	0x3d96194f	0.07329046
83	0x3d73ac22	0.05949033
84	0xbd682072	-0.056671567
85	0xbd8bbc34	-0.06823006
86	0xbd873f24	-0.0660384
87	0x3cadf624	0.021235533
88	0xbcd9ad7e	-0.026571985
89	0xbbccd6f0	-0.0062512085
90	0xbcd18644	-0.025576718
91	0x3b24dc60	0.0025155768
92	0x3d056082	0.03256274
93	0x3b69eaa0	0.0035692826
94	0xbd0099c4	-0.031396642
95	0xbd8a9014	-0.06765762
96	0x3b661fe0	0.0035114214
97	0x3d9f5997	0.0778076
98	0xbb8833d0	-0.004156567
99	0x3d36bd7e	0.044614308
100	0x3cd806f8	0.02637051
101	0x3d998d45	0.07497648
102	0xbd511d05	-0.051053066
103	0x3db1db3b	0.08684393
104	0x3cb0248c	0.021501802
105	0xbd29a51b	-0.041417222
106	0xbd9b6890	-0.07588303
107	0xbbb6fb40	-0.0055841506
108	0x3d0c3e7a	0.03423927
109	0xbd885706	-0.066572234
110	0x3d1ad602	0.03780175
111	0x3d97f5d7	0.07419937
112	0xbd85740a	-0.06516273
113	0xbda74093	-0.081666134
114	0x3cd36d2c	0.025808893
115	0xbc3b5ce8	-0.011435725
116	0xbd91cb90	-0.071189046
117	0x3c888e08	0.016669288
118	0xbdb038d4	-0.08604589
119	0xbdb1c731	-0.08680571
120	0x3d7ff9f2	0.062494226
121	0xbda3b202	-0.07992937
122	0x3d9aab5d	0.07552216
123	0xbd5548af	-0.05207127
124	0xbd9c4bc6	-0.0763164
125	0xbca15ba8	-0.019697025
126	0x3d4477f2	0.04796595
127	0x3d78aaa6	0.060709618
128	0x3d85137d	0.06497858
129	0x3cd4e358	0.025987312
130	0xbd6fe5d3	-0.058568787
131	0x3c3aa508	0.011391886
132	0xbd133388	-0.035937816
133	0x3d10c956	0.03534826
134	0x3d75d44a	0.060016908
135	0x3c531478	0.012883298
136	0x3db2f019	0.08737201
137	0xbd0925f9	-0.03348348
138	0x3cbd6164	0.023117729
139	0x3d13b1be	0.03605818
140	0xbd6f9b04	-0.058497444
141	0xbd167e2c	-0.03674142
142	0xbd31fdb8	-0.043454856
143	0x3d2c498a	0.04206232
144	0x3d3f158a	0.0466514
145	0xbd4ce7bb	-0.050025683
146	0xbd0fb81d	-0.035087693
147	0xbcff0cf6	-0.03113411
148	0x3d8f2d6f	0.06991088
149	0xbd67f90c	-0.056633994
150	0x3da4820f	0.08032619
151	0xbd91465a	-0.070934966
152	0xbdafeb58	-0.0858981
153	0xbdaabbf3	-0.0833663
154	0xbcbe4080	-0.023224115
155	0xbc4dcb40	-0.012560666
156	0x3d2601ca	0.04052905
157	0xbda027dd	-0.07820103
158	0x3dae28a7	0.085038476
159	0xbdb26c0e	-0.08712016
160	0xbcb071fc	-0.021538727
161	0xbd3d9ff1	-0.04629511
162	0x3ca1b0b4	0.019737579
163	0x3d621896	0.05519923
164	0xbd96ec05	-0.07369236
165	0xbcd2be4c	-0.025725506
166	0xbbf6ee00	-0.007535696
167	0xbda80a29	-0.08205063
168	0xbce54b84	-0.02799011
169	0xbd2c9a40	-0.04213929
170	0xbd2b7399	-0.04185829
171	0x3bb235c0	0.0054385364
172	0xbc214b28	-0.009844579
173	0x3c68ded8	0.014213286
174	0x3ce61d44	0.028090127
175	0xbd7997d0	-0.060935795
176	0xbbceabc0	-0.0063070953
177	0xbc9312a8	-0.017953232
178	0x3db23f89	0.087035246
179	0x3d8340a5	0.06408814
180	0x3d3bc44a	0.045841493
181	0xbd899f3a	-0.06719823
182	0x3d8121bb	0.06305262
183	0x3d83413d	0.064089276
184	0x3d4bf6fe	0.049796097
185	0x3dae59d9	0.08513231
186	0x3cecd384	0.028909452
187	0xbd91e276	-0.07123272
188	0xbd0a2828	-0.033729702
189	0x3d3d41f6	0.046205483
190	0xbdb2f7ec	-0.087386936
191	0xbd5a3912	-0.053277083
192	0x3cc4e72c	0.024036013
193	0x3d54901a	0.05189524
194	0xbbd1b900	-0.0064002275
195	0x3cb8d100	0.022560596
196	0xbd86b103	-0.06576731
197	0xbc9274a8	-0.017877892
198	0xbd03c520	-0.032170415
199	0x3c9cd110	0.019142658
200	0xbc4e2f48	-0.012584515
201	0xbd40b23e	-0.047044985
202	0xbc176850	-0.009241179
203	0xbcbc2e90	-0.022971421
204	0xbc10a1a0	-0.008827597
205	0x3d04bf2a	0.03240887
206	0xbcc3c8c0	-0.023899436
207	0xbc8694f0	-0.01642844
208	0x3ca49594	0.020090856
209	0xbbd1fad0	-0.006408073
210	0xbcb9d230	-0.022683233
211	0x3bc45590	0.005991645
212	0xbd597292	-0.05308778
213	0x3d97b633	0.074077986
214	0xbd8f852c	-0.070078224
215	0x3db2c031	0.08728064
216	0x3d2cb13a	0.042161204
217	0xbd9ae2f8	-0.07562822
218	0x3d86d811	0.0658418
219	0x3d2ecdfe	0.04267692
220	0x3d60f32e	0.054919414
221	0x3d1dabce	0.038493924
222	0xbd853d76	-0.06505863
223	0xbda7960f	-0.08182918
224	0x3d67ebfe	0.056621544
225	0x3d6ad866	0.05733528
226	0x3c6bc610	0.0143904835
227	0xbbfde790	-0.0077485517
228	0xbd8ee236	-0.0697674
229	0x3c48a228	0.012245692
230	0x3ce7fe5c	0.02831953
231	0x3ca71ae8	0.020398572
232	0x3d9d7515	0.07688347
233	0xbd262be3	-0.040569197
234	0x3d740b66	0.059581183
235	0xbd0b6f1d	-0.034041513
236	0x3d452232	0.048128314
237	0x3d81630b	0.06317719
238	0x3dac9565	0.08426932
239	0x3d9a5395	0.07535473
240	0x39e11600	0.00042931736
241	0x3c998050	0.018737942
242	0x3c3b0570	0.011414871
243	0x3cf78aac	0.030217491
244	0xbdaa67ea	-0.08320601
245	0x39952800	0.00028449297
246	0xbce7ca64	-0.02829475
247	0xbd400fe5	-0.04689016
248	0xbd9412ce	-0.07230149
249	0x3db20f4b	0.08694323
250	0x3d7169e6	0.058938883
251	0xbd11af22	-0.03556741
252	0x3cc32c80	0.02382493
253	0xbb4ce4a0	-0.00312642
254	0xbd7e1fb4	-0.062041953
255	0xbd654988	-0.055978328

module.layer2.bias f4 [128]
0	0x3d26deee	0.040739946
1	0x3d62ee42	0.055403
2	0x3d692cd2	0.05692751
3	0xbd9a5b18	-0.07536906
4	0x3d47f7a6	0.04882016
5	0xbd989e53	-0.07452073
6	0xbafb6d00	-0.0019182265
7	0xbd6711f2	-0.0564136
8	0xbb84a6a0	-0.0040481836
9	0x3d378d2e	0.044812374
10	0xbc597098	-0.013271473
11	0xbd737dc6	-0.05944612
12	0x3da46cc5	0.08028559
13	0x3c2d8a40	0.010592043
14	0x3d5f07b2	0.0544507
15	0xbd4aad87	-0.049481895
16	0xbc3bfe20	-0.011474162
17	0x3c022aa0	0.007944733
18	0xbc93b67c	-0.018031351
19	0x3cf2cc80	0.029638529
20	0xbd7e2aa6	-0.06205239
21	0xbcbb49d0	-0.022862345
22	0xbc703568	-0.014661171
23	0xbd88b846	-0.06675772
24	0x3d4c4936	0.049874507
25	0x3cc24eec	0.023719274
26	0xbcd35414	-0.025796928
27	0xbc1ae250	-0.009453371
28	0x3d920717	0.071302585
29	0x3d8837c5	0.06651262
30	0xbd7efd0c	-0.062253043
31	0x3cd03c84	0.025419481
32	0xbc720398	-0.014771365
33	0x3da90b97	0.08254164
34	0xbd81d4b2	-0.063393965
35	0xbd50de74	-0.050993398
36	0x3c9e5a2c	0.019330107
37	0x3cc1a8fc	0.023640148
38	0xbd1da504	-0.03848745
39	0x3d1bf9de	0.03808009
40	0x3c9cac2c	0.019125067
41	0xbc0c7590	-0.008572951
42	0xbcca05dc	-0.024660997
43	0x3a405c80	0.00073380023
44	0xbbb31bc0	-0.0054659545
45	0xbd940f00	-0.072294235
46	0xbca96740	-0.020679116
47	0xbd98d2e8	-0.07462102
48	0xbd7be4c4	-0.061497465
49	0x3cc5a890	0.024128228
50	0xbd9c1c63	-0.07622602
51	0x3b974ec0	0.004617542
52	0xbd5e476f	-0.054267343
53	0xbd8244b4	-0.0636076
54	0x3c235aa8	0.009970345
55	0x3d2ca276	0.042147122
56	0x3d850c2f	0.064964645
57	0x3d67148e	0.056416087
58	0xbc28b690	-0.010297433
59	0xbd43d965	-0.047814745
60	0x3d9bbaf1	0.076040156
61	0x3d061ba0	0.03274119
62	0x3d2cb81a	0.04216776
63	0xbb89a430	-0.004200481
64	0xbd2c843e	-0.042118303
65	0x3dab3e63	0.08361509
66	0xbd743042	-0.059616335
67	0x3da35615	0.07975403
68	0x3d359812	0.04433448
69	0xbd7bc0ce	-0.06146317
70	0x3d21fe9e	0.039549462
71	0x3d8bcaad	0.06825767
72	0xbdacf8f3	-0.08445921
73	0xbd47fd3a	-0.04882548
74	0x3c96a9e8	0.018391564
75	0x3d0775aa	0.033071198
76	0x3bc95fb0	0.00614544
77	0xbd25e565	-0.04050197
78	0xbd9034eb	-0.07041343
79	0xbd8a6594	-0.06757656
80	0xbd71844a	-0.05896405
81	0x3da92f91	0.08261026
82	0x3d7c8d2a	0.061658062
83	0xbca33284	-0.019921549
84	0x3d53c7a6	0.05170407
85	0xb9ce6200	-0.00039364398
86	0xbd73f65b	-0.059561115
87	0x3d90bd71	0.07067383
88	0xbd48f415	-0.0490609
89	0xbd51d205	-0.05122568
90	0x3c91eef8	0.017814144
91	0x3c2acee8	0.010425307
92	0x3be3b0c0	0.0069485605
93	0xbd2cc20f	-0.042177256
94	0x3ce0567c	0.027384989
95	0xbd0a5e89	-0.033781562
96	0x3b031f20	0.0020007566
97	0xbd9cd212	-0.07657255
98	0x3cf587cc	0.02997198
99	0xbdacd5e0	-0.08439231
100	0x3cff0f78	0.031135306
101	0x3d441642	0.04787279
102	0xbda4bb4d	-0.08043537
103	0xbda8f9ee	-0.08250795
104	0x3d8838f9	0.06651492
105	0x3c68f5e0	0.014218777
106	0x3d8cbc3b	0.068718396
107	0x3c53cae8	0.012926795
108	0xbcd93dc0	-0.026518703
109	0xbd5e5383	-0.05427886
110	0x3d470286	0.04858639
111	0x3d6380c2	0.055542715
112	0xbdac37ba	-0.084090665
113	0xbda5a13d	-0.080873944
114	0xbd92ccf5	-0.07167999
115	0xbd99e807	-0.07514959
116	0xbc209988	-0.00980223
117	0x3c1cc2c0	0.009567916
118	0xbd5814b3	-0.052754115
119	0x3c9de678	0.019274935
120	0x3d4f7e76	0.050657712
121	0xbc5fb9b8	-0.013655119
122	0x3c11e618	0.008904956
123	0xbdab5d3e	-0.08367394
124	0x3d9c5ed9	0.07635278
125	0xbc2324e8	-0.00995753
126	0xbd3e159e	-0.046407335
127	0x3d8038a5	0.06260804

module.layer3.weight f4 [4, 128]
0	0x3c945bc0	0.018110156
1	0xbd834654	-0.064098984
2	0xbd843180	-0.06454754
3	0x3d629722	0.055319913
4	0xbd318563	-0.043340098
5	0xbd25a22a	-0.040437855
6	0xbc369b10	-0.011145368
7	0x3c01fba8	0.007933535
8	0x3c861dfc	0.01637172
9	0x3c25db08	0.010123022
10	0x3c96c2dc	0.018403463
11	0x3d4c9b36	0.04995271
12	0x3d4a325a	0.049364425
13	0xbd893a26	-0.06700544
14	0x3cba7a98	0.022763535
15	0xbd17d422	-0.03706754
16	0xbd8281d1	-0.06372417
17	0x3d9edfdb	0.07757541
18	0xbd9c4eb5	-0.076322
19	0x3d5ff142	0.05467344
20	0x3da43761	0.08018375
21	0x3d33c40a	0.04388813
22	0x3c017f40	0.007903874
23	0xbda7e398	-0.08197707
24	0xbd1fd308	-0.039019614
25	0xbd7004c3	-0.05859829
26	0x3d59c4d6	0.053166233
27	0x3d8f5d3b	0.07000204
28	0xbd8af707	-0.06785398
29	0x3d12abae	0.035808258
30	0xbc9f5650	-0.019450337
31	0x3d7a7376	0.06114527
32	0xbd6c58d1	-0.05770189
33	0x3d23894a	0.03992585
34	0x3d1f672a	0.038916744
35	0x3d947407	0.07248693
36	0x3d81ae19	0.063320346
37	0x3d338dba	0.043836333
38	0xbd6fc985	-0.058541793
39	0xbd9c64a0	-0.0763638
40	0x3db206b9	0.086926885
41	0xbbbf9490	-0.0058465675
42	0xbd4828fd	-0.048867214
43	0xbcfb04c2	-0.030641917
44	0xbd68888c	-0.056770846
45	0xbd2ddaf2	-0.04244513
46	0x3caf6740	0.021411538
47	0xbc555fd0	-0.013023332
48	0x3a07f800	0.0005186796
49	0xbd08dc66	-0.033413313
50	0x3d8e88bd	0.069596745
51	0xbc666db0	-0.0140642375
52	0x3ca24520	0.019808352
53	0xbd9040d8	-0.07043618
54	0x3d879d1f	0.06621765
55	0x3d47f906	0.04882147
56	0x3da89c79	0.0823297
57	0xbd0e2737	-0.034705367
58	0xbd906e03	-0.07052233
59	0x3da6f1c3	0.08151581
60	0xbd84f787	-0.064925246
61	0x3d72d472	0.059284635
62	0xbc99d328	-0.018777445
63	0xbcd51f68	-0.026015952
64	0x3d457d1a	0.04821501
65	0xbd5dbbf5	-0.054134328
66	0x3d9245c9	0.07142217
67	0xbc8eb824	-0.01742179
68	0x3a312b00	0.00067584217
69	0xbd984888	-0.07435709
70	0x3d07cf62	0.03315676
71	0xbd46aca7	-0.048504498
72	0x3d1f195e	0.03884255
73	0x3d48db22	0.049037106
74	0xbd818d89	-0.06325824
75	0xbd0294df	-0.031880256
76	0x3bf74b90	0.0075468495
77	0xbd6e21bb	-0.058137637
78	0xbda29c5d	-0.0793998
79	0x3c9f725c	0.01946371
80	0xbd0945ea	-0.03351394
81	0xbd7542d4	-0.059878185
82	0xbd568e44	-0.05238177
83	0x3d07357e	0.03301
84	0x3db42799	0.08796615
85	0x3daf9149	0.08572633
86	0xbd13750a	-0.03600029
87	0x3db09093	0.08621325
88	0xbd024d85	-0.03181221
89	0xbd653d1a	-0.055966474
90	0x3da38623	0.07984569
91	0xbd23bd44	-0.03997542
92	0x3db279b9	0.08714623
93	0xbcdba850	-0.026813656
94	0x3ba60cb0	0.0050674304
95	0x3dae9777	0.085249834
96	0x3c8b01e8	0.016968682
97	0x3db03353	0.08603539
98	0xbda89950	-0.08232367
99	0x3d69ae3e	0.057050936
100	0xba860040	-0.0010223463
101	0xbcecd536	-0.02891026
102	0xbd81a473	-0.06330194
103	0xbd24293c	-0.040078387
104	0xbc0c5068	-0.008564092
105	0xbcebf734	-0.0288044
106	0xbb90ab70	-0.004414968
107	0xbc020b80	-0.007937312
108	0x3c964e94	0.018348016
109	0x3d86da87	0.065846495
110	0xbca05130	-0.019569963
111	0x3cc65664	0.024211116
112	0xbd7b17d1	-0.06130201
113	0x3d00b9da	0.03142724
114	0x3cd5aa5c	0.02608221
115	0xb97bb600	-0.00024005026
116	0x3d6098a6	0.054833077
117	0xbd1f22cc	-0.038851544
118	0x3bb251b0	0.005441867
119	0x3d26e95a	0.040749885
120	0xbd2c0c2b	-0.04200379
121	0xbd84dfb7	-0.06487983
122	0xbd2f6507	-0.042820957
123	0x3d5b6be2	0.053569682
124	0xbd872a64	-0.06599882
125	0x3c22d9b8	0.0099396035
126	0x3db4bcdd	0.08825085
127	0xbcfd207a	-0.030899275
128	0x3c936aa4	0.017995186
129	0xbd65a448	-0.056064874
130	0xbd66cf6c	-0.056350157
131	0x3d385286	0.045000575
132	0x3dabc3fb	0.0838699
133	0x3d3e391a	0.046441175
134	0xbd070991	-0.032968108
135	0xbd82884f	-0.06373655
136	0x3d6d0e1e	0.05787479
137	0xbb34c540	-0.002758339
138	0xbd07d649	-0.033163343
139	0xbd608dd9	-0.054822776
140	0xbd15ac26	-0.036541127
141	0xbd28f668	-0.041250616
142	0x3d368706	0.044562362
143	0x3d5520aa	0.052033104
144	0xbcd05c4c	-0.025434636
145	0x3d746d96	0.05967482
146	0xbb400d00	-0.0029304624
147	0x3c975fa8	0.01847823
148	0x3d2fff6e	0.042968206
149	0x3c840cb4	0.016119339
150	0x3d2409ea	0.040048517
151	0xbc16f2a0	-0.00921312
152	0xbd9476d0	-0.07249224
153	0x3d30332e	0.04301756
154	0xbc9c4358	-0.01907508
155	0x3d5ea856	0.054359756
156	0xbb2a7cc0	-0.0026014298
157	0xbd618d61	-0.05506647
158	0xbda83885	-0.08213905
159	0x3d936375	0.07196704
160	0xbce40fc0	-0.027839541
161	0x3da822c5	0.08209757
162	0x3db3b471	0.08774651
163	0xbd19fe62	-0.037596114
164	0x3d71e5b2	0.059056945
165	0x3d2425f2	0.04007525
166	0xbda730ba	-0.08163591
167	0xbd8de3af	-0.06928193
168	0xbdb323f9	-0.087470956
169	0xbd4587a0	-0.048225045
170	0xbc83e5e4	-0.016100831
171	0x3d2a5416	0.041584097
172	0x3bf9cb20	0.0076230913
173	0x3d399282	0.045305736
174	0xbd20431c	-0.0391265
175	0xbc93b868	-0.018032268
176	0xbd588cc6	-0.052868627
177	0x3d4f258a	0.05057291
178	0x3cda0f84	0.026618727
179	0x3d949d7d	0.07256601
180	0xbc951878	-0.018200144
181	0xbd50ae01	-0.050947193
182	0x3b6f18c0	0.0036483258
183	0xbd9349c6	-0.071918055
184	0xbcf13bfc	-0.029447548
185	0xbd96108f	-0.07327377
186	0xbc7506f8	-0.014955275
187	0x3c9ba694	0.01900033
188	0x3b3ec4e0	0.0029109046
189	0x3d35346a	0.04423944
190	0xbd80cb99	-0.06288833
191	0x3d9fa989	0.07796008
192	0x3d43dc4e	0.04781752
193	0xbda4b8ec	-0.080430835
194	0xbda35a09	-0.07976157
195	0xbb607da0	-0.0034254566
196	0xbd9c943a	-0.076454595
197	0xbc02e380	-0.007988811
198	0xbd750eab	-0.05982844
199	0x3c5d3070	0.013500318
200	0xbd4390c3	-0.047745477
201	0x3d458cf6	0.048230134
202	0xbd3c2a36	-0.045938693
203	0xbccb4b2c	-0.024816118
204	0xbcb07118	-0.021538302
205	0x3da63c7d	0.08117006
206	0x3d3ec352	0.04657299
207	0xbd45400b	-0.04815678
208	0x3da52a93	0.08064761
209	0xbb87acd0	-0.004140474
210	0xbd1fb92e	-0.03899496
211	0xbd37d5a8	-0.044881493
212	0xbd3a9ac6	-0.04555776
213	0x3d805cad	0.062676765
214	0xbdaa9d1e	-0.08330749
215	0x3d8353e5	0.06412486
216	0xbd9a9429	-0.075477906
217	0xbceb067a	-0.028689612
218	0x3d588766	0.0528635
219	0x3d99b9bf	0.075061314
220	0x3ce154a0	0.027506173
221	0x3da69f9f	0.08135914
222	0xbcdb3848	-0.026760235
223	0xb8a5f800	-7.914007e-05
224	0x3dac3207	0.084079795
225	0xbc98e880	-0.018665552
226	0xbcf64b2a	-0.030065138
227	0xbd1449a5	-0.036203045
228	0x3d15ea8a	0.036600627
229	0xbda71d2a	-0.081598595
230	0x3da114e9	0.078653164
231	0xbd7eff42	-0.06225515
232	0xbd2375e5	-0.039907355
233	0xbd3f327e	-0.046679012
234	0xbab680c0	-0.0013923869
235	0xbc93e300	-0.018052578
236	0x3cfd60ec	0.030930005
237	0xbccc07c0	-0.02490604
238	0xbd38a3bc	-0.045078024
239	0xbd28d096	-0.041214548
240	0xbd1e7cc5	-0.03869321
241	0x3d9ab3f3	0.07553854
242	0xbb9cb580	-0.0047823787
243	0xbd715a54	-0.058924034
244	0x3d85b1bb	0.0652804
245	0xbd78dab8	-0.06075546
246	0x3d08ee6e	0.03343051
247	0xbd0913e0	-0.03346622
248	0x3c7ae280	0.015312791
249	0xbc86deec	-0.01646372
250	0x3c258a78	0.010103814
251	0xbdaeb85f	-0.0853126
252	0x3b0e9aa0	0.0021759644
253	0xbd9a5df7	-0.075374536
254	0x3c3e7f78	0.011627071
255	0x3d4fd23e	0.050737612

module.layer3.bias f4 [4]
0	0x3d500522	0.050786145
1	0x3d8c16f3	0.06840315
2	0x3c5db368	0.013531543
3	0xbd6ed78c	-0.05831103
